(cvg) PS C:\Users\russ_le\Projects\CroDINO> python .\apply_method.py --name fix_22 --backbone dinov3
panos
Using device: cuda
Model patch size: 16, grid size: (14, 14)


=====================================================================================

CrossviewModel(
  (model): DINOv3ViTModel(
    (embeddings): DINOv3ViTEmbeddings(
      (patch_embeddings): Conv2d(3, 1024, kernel_size=(16, 16), stride=(16, 16))
    )
    (rope_embeddings): DINOv3ViTRopePositionEmbedding()
    (layer): ModuleList(
      (0-23): 24 x DINOv3ViTLayer(
        (norm1): LayerNorm((1024,), eps=1e-05, elementwise_affine=True)
        (attention): DINOv3ViTAttention(
          (k_proj): Linear(in_features=1024, out_features=1024, bias=False)
          (v_proj): Linear(in_features=1024, out_features=1024, bias=True)
          (q_proj): Linear(in_features=1024, out_features=1024, bias=True)
          (o_proj): Linear(in_features=1024, out_features=1024, bias=True)
        )
        (layer_scale1): DINOv3ViTLayerScale()
        (drop_path): Identity()
        (norm2): LayerNorm((1024,), eps=1e-05, elementwise_affine=True)
        (mlp): DINOv3ViTMLP(
          (up_proj): Linear(in_features=1024, out_features=4096, bias=True)
          (down_proj): Linear(in_features=4096, out_features=1024, bias=True)
          (act_fn): GELUActivation()
        )
        (layer_scale2): DINOv3ViTLayerScale()
      )
    )
    (norm): LayerNorm((1024,), eps=1e-05, elementwise_affine=True)
  )
)
===========================================================================
Layer (type:depth-idx)                             Param #
===========================================================================
CrossviewModel                                     --
├─DINOv3ViTModel: 1-1                              --
│    └─DINOv3ViTEmbeddings: 2-1                    6,144
…
Processing Images: 100%|██████████████████████████████| 177/177 [20:54<00:00,  7.09s/it, Delta Yaw=53.39°, Batch=23/23]
Mean Delta Yaw Error: 53.39305891848265
Standard Deviation of Delta Yaw Error: 61.78302402121406
Median Delta Yaw Error: 20.142857142857167
(cvg) PS C:\Users\russ_le\Projects\CroDINO> python .\apply_method.py --name fix_22_v2 --backbone dinov2
panos
Using device: cuda
Using cache found in C:\Users\russ_le/.cache\torch\hub\facebookresearch_dinov2_main
Model patch size: 14, grid size: (16, 16)


=====================================================================================

CrossviewModel(
  (original_model): DinoVisionTransformer(
    (patch_embed): PatchEmbed(
      (proj): Conv2d(3, 768, kernel_size=(14, 14), stride=(14, 14))
      (norm): Identity()
    )
    (blocks): ModuleList(
      (0-11): 12 x NestedTensorBlock(
        (norm1): LayerNorm((768,), eps=1e-06, elementwise_affine=True)
        (attn): MemEffAttention(
          (qkv): Linear(in_features=768, out_features=2304, bias=True)
          (attn_drop): Dropout(p=0.0, inplace=False)
          (proj): Linear(in_features=768, out_features=768, bias=True)
          (proj_drop): Dropout(p=0.0, inplace=False)
        )
        (ls1): LayerScale()
        (drop_path1): Identity()
        (norm2): LayerNorm((768,), eps=1e-06, elementwise_affine=True)
        (mlp): Mlp(
          (fc1): Linear(in_features=768, out_features=3072, bias=True)
          (act): GELU(approximate='none')
          (fc2): Linear(in_features=3072, out_features=768, bias=True)
          (drop): Dropout(p=0.0, inplace=False)
        )
        (ls2): LayerScale()
        (drop_path2): Identity()
      )
    )
    (norm): LayerNorm((768,), eps=1e-06, elementwise_affine=True)
    (head): Identity()
  )
  (patch_embed): PatchEmbed(
    (proj): Conv2d(3, 768, kernel_size=(14, 14), stride=(14, 14))
    (norm): Identity()
  )
  (blocks): ModuleList(
    (0-11): 12 x NestedTensorBlock(
      (norm1): LayerNorm((768,), eps=1e-06, elementwise_affine=True)
      (attn): MemEffAttention(
        (qkv): Linear(in_features=768, out_features=2304, bias=True)
        (attn_drop): Dropout(p=0.0, inplace=False)
        (proj): Linear(in_features=768, out_features=768, bias=True)
        (proj_drop): Dropout(p=0.0, inplace=False)
      )
      (ls1): LayerScale()
      (drop_path1): Identity()
      (norm2): LayerNorm((768,), eps=1e-06, elementwise_affine=True)
      (mlp): Mlp(
        (fc1): Linear(in_features=768, out_features=3072, bias=True)
        (act): GELU(approximate='none')
        (fc2): Linear(in_features=3072, out_features=768, bias=True)
        (drop): Dropout(p=0.0, inplace=False)
      )
      (ls2): LayerScale()
      (drop_path2): Identity()
    )
  )
  (norm): LayerNorm((768,), eps=1e-06, elementwise_affine=True)
  (head): Identity()
)
======================================================================
Layer (type:depth-idx)                        Param #
======================================================================
CrossviewModel                                --
├─DinoVisionTransformer: 1-1                  1,053,696
│    └─PatchEmbed: 2-1                        --
…
Processing Images: 100%|██████████████████████████████| 177/177 [24:25<00:00,  8.28s/it, Delta Yaw=61.90°, Batch=23/23]
Mean Delta Yaw Error: 61.8954802259887
Standard Deviation of Delta Yaw Error: 63.484857847358576
Median Delta Yaw Error: 27.375
(cvg) PS C:\Users\russ_le\Projects\CroDINO> python .\apply_method.py --name fix_22_v3_cross --backbone dinov3_crossview
panos
Using device: cuda
Model patch size: 16, grid size: (14, 14)


=====================================================================================

CrossviewModel(
  (ground_model): DINOv3ViTModel(
    (embeddings): DINOv3ViTEmbeddings(
      (patch_embeddings): Conv2d(3, 1024, kernel_size=(16, 16), stride=(16, 16))
    )
    (rope_embeddings): DINOv3ViTRopePositionEmbedding()
    (layer): ModuleList(
      (0-23): 24 x DINOv3ViTLayer(
        (norm1): LayerNorm((1024,), eps=1e-05, elementwise_affine=True)
        (attention): DINOv3ViTAttention(
          (k_proj): Linear(in_features=1024, out_features=1024, bias=False)
          (v_proj): Linear(in_features=1024, out_features=1024, bias=True)
          (q_proj): Linear(in_features=1024, out_features=1024, bias=True)
          (o_proj): Linear(in_features=1024, out_features=1024, bias=True)
        )
        (layer_scale1): DINOv3ViTLayerScale()
        (drop_path): Identity()
        (norm2): LayerNorm((1024,), eps=1e-05, elementwise_affine=True)
        (mlp): DINOv3ViTMLP(
          (up_proj): Linear(in_features=1024, out_features=4096, bias=True)
          (down_proj): Linear(in_features=4096, out_features=1024, bias=True)
          (act_fn): GELUActivation()
        )
        (layer_scale2): DINOv3ViTLayerScale()
      )
    )
    (norm): LayerNorm((1024,), eps=1e-05, elementwise_affine=True)
  )
  (aerial_model): DINOv3ViTModel(
    (embeddings): DINOv3ViTEmbeddings(
      (patch_embeddings): Conv2d(3, 1024, kernel_size=(16, 16), stride=(16, 16))
    )
    (rope_embeddings): DINOv3ViTRopePositionEmbedding()
    (layer): ModuleList(
      (0-23): 24 x DINOv3ViTLayer(
        (norm1): LayerNorm((1024,), eps=1e-05, elementwise_affine=True)
        (attention): DINOv3ViTAttention(
          (k_proj): Linear(in_features=1024, out_features=1024, bias=False)
          (v_proj): Linear(in_features=1024, out_features=1024, bias=True)
          (q_proj): Linear(in_features=1024, out_features=1024, bias=True)
          (o_proj): Linear(in_features=1024, out_features=1024, bias=True)
        )
        (layer_scale1): DINOv3ViTLayerScale()
        (drop_path): Identity()
        (norm2): LayerNorm((1024,), eps=1e-05, elementwise_affine=True)
        (mlp): DINOv3ViTMLP(
          (up_proj): Linear(in_features=1024, out_features=4096, bias=True)
          (down_proj): Linear(in_features=4096, out_features=1024, bias=True)
          (act_fn): GELUActivation()
        )
        (layer_scale2): DINOv3ViTLayerScale()
      )
    )
    (norm): LayerNorm((1024,), eps=1e-05, elementwise_affine=True)
  )
)
===========================================================================
Layer (type:depth-idx)                             Param #
===========================================================================
CrossviewModel                                     --
├─DINOv3ViTModel: 1-1                              --
│    └─DINOv3ViTEmbeddings: 2-1                    6,144
…
